converted_model.tflite (tflite, 223040 bytes, 14 tensors)

sequential/conv2d/BiasAdd/ReadVariableOp f4 [64]
0	0xb958ba48	-0.0002066876
1	0x3c5d489e	0.013506083
2	0xbd43b531	-0.04778022
3	0xbba31448	-0.004976783
4	0x3d01ac99	0.031658743
5	0xbbbb17cc	-0.005709624
6	0xbc497b84	-0.012297515
7	0x3c058806	0.008150106
8	0x3cbc8ec0	0.023017287
9	0x3cc66ff0	0.024223298
10	0xbd2d514a	-0.04231385
11	0xbd831b04	-0.06401637
12	0xbd7c00c8	-0.061524183
13	0x3c2c05f4	0.010499466
14	0x3d008d45	0.031384725
15	0xbd2f74f8	-0.04283616
16	0x3c4e4c58	0.012591444
17	0xbd01940e	-0.031635337
18	0x3cebbd03	0.028776651
19	0x3c085212	0.008320348
20	0x3d092907	0.033486392
21	0x3bd96a44	0.0066349823
22	0x3d04ca65	0.03241958
23	0x3c698829	0.0142536545
24	0x3b582b08	0.0032984633
25	0x3bf158a6	0.007365304
26	0x39422b00	0.000185173
27	0xbbb1bc90	-0.0054240897
28	0x3d50da9a	0.050989725
29	0x3c78ba7a	0.015181178
30	0xbcbc7029	-0.0230027
31	0xbcca1288	-0.02466704
32	0xbc97b826	-0.018520426
33	0xbc8e2839	-0.017353164
34	0x3ca6cc65	0.020361135
35	0xbd09d0a2	-0.033646233
36	0x3b04056c	0.0020144833
37	0xbcbfacab	-0.023397764
38	0x3b3667e3	0.0027832917
39	0xbc4fb88c	-0.012678277
40	0xbd410946	-0.047127984
41	0x3d078a6d	0.033090997
42	0x3c3fd587	0.011708624
43	0xbc946e30	-0.018118948
44	0xbd00ac73	-0.03141446
45	0x3d05ecea	0.032696642
46	0xbce1c239	-0.027558433
47	0xbc9b2a53	-0.01894108
48	0xbae29df9	-0.0017289511
49	0xbc9e73e5	-0.019342372
50	0x3cbf1608	0.023325935
51	0x3bd38839	0.006455448
52	0x3d485b14	0.048914984
53	0x3c69522c	0.014240783
54	0x3b342de6	0.0027493178
55	0x3d1cae5d	0.038252223
56	0xbd223654	-0.039602593
57	0x3a762258	0.0009389273
58	0xbd1fea22	-0.039041646
59	0xbd290eba	-0.04127381
60	0xbcb661e4	-0.022263475
61	0xbcf6fce0	-0.030149877
62	0x3cf694ff	0.030100344
63	0xbd294416	-0.041324697

sequential/conv2d_1/BiasAdd/ReadVariableOp f4 [32]
0	0xbd1b41d6	-0.037904583
1	0xbe10a1c5	-0.1412421
2	0xbd200617	-0.039068308
3	0x3cd28755	0.025699297
4	0xbc373390	-0.011181727
5	0xbc7e1f9d	-0.015510467
6	0xbcd9c212	-0.026581798
7	0xbd6fcf42	-0.058547266
8	0xbd3ecad1	-0.04658014
9	0x3cbc755d	0.023005182
10	0x3bc302f7	0.005951281
11	0xbd569c20	-0.052394986
12	0xbc523550	-0.0128300935
13	0xbd0d02b9	-0.034426425
14	0x3cb09f4c	0.021560334
15	0xbc382c76	-0.011241069
16	0xbd1de75a	-0.038550712
17	0xbda942ac	-0.0826467
18	0xbd9b7c3c	-0.07592055
19	0x3d3d6da4	0.04624714
20	0x3c195c6f	0.009360417
21	0xbb4f26f9	-0.0031608923
22	0x3bd5dc59	0.0065265116
23	0xbcf70b49	-0.030156748
24	0xbaf8236f	-0.0018931458
25	0xbdf515d0	-0.11967051
26	0x3cdbfe59	0.02685468
27	0xbd454c27	-0.048168328
28	0xbca8dc9d	-0.02061301
29	0xbca18a61	-0.019719305
30	0xbc413d07	-0.011794335
31	0x3b85ca04	0.00408292

sequential/conv2d/Conv2D f4 [64, 3, 3, 1]
0	0x3d7af56b	0.061269205
1	0xbdfdf7f6	-0.124008104
2	0x3caede9d	0.021346385
3	0xbd31c829	-0.04340378
4	0x3dc1ade7	0.09456997
5	0x3d09e7af	0.033668216
6	0xbd655771	-0.055991594
7	0x3cd18e4d	0.02558055
8	0x3daf7d54	0.08568826
9	0x3d26f84e	0.040764146
10	0x3c1238e4	0.008924697
11	0xbdd67bb2	-0.10472812
12	0xbdce23f0	-0.10065448
13	0x3d2fb639	0.04289839
14	0x3d55040c	0.052005813
15	0xbdb32eee	-0.087491855
16	0x3cfdbe9a	0.030974675
17	0xbd4b6e60	-0.04966581
18	0x3d91d7c1	0.0712123
19	0x3c4b483c	0.012407359
20	0xbd2717de	-0.040794246
21	0x3da50c0b	0.08058938
22	0x3c38af94	0.01127233
23	0x3d843113	0.06454673
24	0xbdbed23f	-0.09317445
25	0xbd8ea06f	-0.06964194
26	0xbc950d98	-0.018194959
27	0xbc8d9d4b	-0.017286917
28	0xbc00dcfe	-0.007865189
29	0xbd2ad3d9	-0.04170594
30	0xbddfecc0	-0.10933828
31	0xbe1238a0	-0.14279413
32	0xbcdbdacb	-0.026837727
33	0x3d2447ce	0.04010754
34	0x3d9a379d	0.07530139
35	0xbcef150c	-0.02918484
36	0x3d812080	0.06305027
37	0x3d8e3cbf	0.0694518
38	0xbd5cd9f7	-0.053918805
39	0xbd0d37c1	-0.034477
40	0xbdd76f8d	-0.105193235
41	0xbc856053	-0.016281283
42	0xbcd328c6	-0.025776278
43	0xbd6c3f02	-0.057677276
44	0x3db20786	0.08692841
45	0xbc3ab2f3	-0.011395204
46	0x3dfffb8d	0.124991514
47	0x3c46dc8e	0.012137545
48	0x3dad3990	0.08458245
49	0x3c6c7a5b	0.014433469
50	0x3c01d528	0.007924356
51	0xbda218db	-0.07914897
52	0x3d449345	0.04799201
53	0x3d388577	0.045049157
54	0xbd5e55b3	-0.054280948
55	0xbd8d5004	-0.069000274
56	0xbc65c68c	-0.014024388
57	0xbe07640a	-0.13221756
58	0x3bf7982b	0.0075559816
59	0x3da2828c	0.07935056
60	0xbdb26cdd	-0.0871217
61	0x3d69e845	0.057106275
62	0xbd34153b	-0.04396556
63	0xbda7d9e6	-0.08195858
64	0x3db05591	0.086100705
65	0x3d06f2df	0.032946464
66	0xbd8adce7	-0.06780415
67	0xba812298	-0.0009852229
68	0x3c8a45ac	0.016878925
69	0xbb4fc5a7	-0.0031703503
70	0x3dcf857a	0.101328805
71	0xbdedd68c	-0.11613187
72	0xbd79c81e	-0.060981862
73	0xbd948a7f	-0.072529785
74	0x3b91e4c0	0.004452318
75	0xbcdff40c	-0.02733805
76	0xbd0edeff	-0.034880634
77	0xbdc73de7	-0.09728604
78	0xbbd2ea19	-0.006436598
79	0xbc8548bb	-0.016270032
80	0x3d94c19a	0.07263489
81	0x3dcf5f3f	0.101255886
82	0xbcaeb471	-0.021326276
83	0x3c5077df	0.012723892
84	0x3d9f1e0c	0.07769403
85	0xbc09898a	-0.008394608
86	0xbd861a53	-0.0654799
87	0x3d931e33	0.071834944
88	0xbdc2e199	-0.095156856
89	0x3d8ab36b	0.067725025
90	0x3cf8fbaa	0.03039344
91	0x3d1e1478	0.03859374
92	0x3d1574dd	0.036488403
93	0x3bcd64f0	0.006268136
94	0x3ad45e92	0.00162025
95	0xbd4f5f4d	-0.050627995
96	0x3d2fa530	0.042882144
97	0x3d6fff2b	0.058592957
98	0x3b582335	0.003297997
99	0x3b81a7c1	0.0039567654
100	0x3d42271c	0.04740058
101	0x3d76cf12	0.06025607
102	0x3cdde155	0.027084986
103	0xbd9a3f55	-0.07531611
104	0x3d0fce33	0.035108756
105	0xbc279570	-0.0102285
106	0xbd9a0686	-0.075207755
107	0x3ceeacaa	0.029135067
108	0x3cd3e25c	0.025864772
109	0x3aeb9bc6	0.0017975501
110	0x3d40059c	0.04688035
111	0x3c1b12a2	0.009464892
112	0x3cbd2f65	0.023093889
113	0xbd882f95	-0.066497006
114	0xbcb46ba0	-0.022023976
115	0x3db62c0b	0.08895119
116	0xbdcb5626	-0.09928541
117	0xbdbd7dda	-0.0925252
118	0x3cef8b05	0.029241094
119	0xbe06c258	-0.13160074
120	0x3d65d8c7	0.056114938
121	0x3cd76477	0.026293023
122	0x3d3b6c30	0.045757473
123	0x3c91c6fb	0.017795077
124	0x3d820d1a	0.06350155
125	0x3d524313	0.0513335
126	0xbd8d15fc	-0.06888959
127	0xbd978045	-0.07397512
128	0xbccacece	-0.024756815
129	0x3ce58e5c	0.028021984
130	0x3dcb9c7b	0.09941956
131	0xbd89bc61	-0.067253835
132	0x3d9291ad	0.07156692
133	0x3d0e7a0e	0.03478437
134	0xbcddf750	-0.027095467
135	0x3dc48d26	0.095972344
136	0xbd8536b9	-0.06504578
137	0xbd328aae	-0.043589287
138	0xbd62cdbf	-0.055371996
139	0x3d91666a	0.07099612
140	0xbdb07c23	-0.08617427
141	0xbd8ba654	-0.06818834
142	0x3c2b964c	0.010472845
143	0xbb6dc617	-0.00362814
144	0x3dc7dfb8	0.09759468
145	0xbdbd896b	-0.09254726
146	0x3c0a8e82	0.008456828
147	0x3c608c9f	0.013705402
148	0xbcc503c3	-0.024049645
149	0xbd28716f	-0.041123804
150	0x3dd6da34	0.10490838
151	0xbdee6b77	-0.11641591
152	0xbd2e97d0	-0.04262525
153	0x3a0724ec	0.0005155343
154	0xbcd20c73	-0.025640702
155	0x3da4e591	0.08051599
156	0xbd954463	-0.07288434
157	0xbd0ee0f0	-0.034882486
158	0x3ddebd7b	0.10875984
159	0x3d0ee738	0.034888476
160	0x3dbcd7e1	0.09220863
161	0x3e05ba8f	0.13059448
162	0x3dc184da	0.094491675
163	0xbd08d9d7	-0.033410873
164	0xbce9ca28	-0.028538778
165	0xbcad04a0	-0.02112037
166	0xbd565f0d	-0.05233674
167	0x3d9cd318	0.076574504
168	0xbc4a7c7f	-0.012358784
169	0xbd1bf5c9	-0.038076196
170	0x3db75dae	0.08953415
171	0x3d883156	0.06650035
172	0xbd585d79	-0.052823517
173	0xbdcef2eb	-0.10104927
174	0x3c54fc81	0.012999655
175	0x3d42eb7b	0.047587853
176	0x3dca513e	0.09878777
177	0xbd91ba45	-0.07115606
178	0x3d1d95d5	0.03847297
179	0x3c2e821a	0.010651136
180	0xbdcf5c78	-0.10125059
181	0xbdbffbe7	-0.093742184
182	0xbde013e2	-0.10941292
183	0xbbd7a8d5	-0.0065814056
184	0xbd81b651	-0.06333602
185	0xbb717ff6	-0.0036849952
186	0x3d9b6075	0.07586757
187	0xbdb04340	-0.08606577
188	0xbd69d3cc	-0.05708675
189	0xbdb4be0b	-0.0882531
190	0x3d187b9c	0.037227258
191	0x3dd0b34d	0.10190449
192	0x3ddc7896	0.107651874
193	0xbdb90d16	-0.09035699
194	0x3cc0ffcd	0.023559475
195	0x3db2aef1	0.08724774
196	0xbda25580	-0.07926464
197	0x3ddda7f6	0.10823052
198	0x3c90e351	0.017686518
199	0x3d9c93b8	0.076453626
200	0xbdafc5ea	-0.08582671
201	0xbd16f578	-0.03685519
202	0xbe1d59c6	-0.15366277
203	0xba83998c	-0.0010040267
204	0x3d13d62d	0.036092926
205	0x3d5c4285	0.053774375
206	0xbd1e196c	-0.038598463
207	0xbd7d83cf	-0.06189328
208	0xbdcf97bf	-0.10136365
209	0xbcf83a8e	-0.030301359
210	0xbd517eb3	-0.05114622
211	0xbd6bcd30	-0.05756873
212	0x3d4a4066	0.04937782
213	0x3c5b6f85	0.013393288
214	0xbdb8174f	-0.08988821
215	0xbc473746	-0.012159174
216	0x3da81941	0.08207942
217	0xbcf52741	-0.029925944
218	0x3d0b1a72	0.033960767
219	0x3dd15435	0.10221139
220	0xbbe72d0c	-0.0070549306
221	0x3d216e0a	0.039411582
222	0x3cd4bf80	0.02597022
223	0xbd57e6ff	-0.05271053
224	0x3d8a6b2c	0.06758723
225	0x3cbc5782	0.022990946
226	0xbda0a9e6	-0.078449056
227	0x3c831dd3	0.016005432
228	0xbd7becfc	-0.061505303
229	0xbdb9106c	-0.09036335
230	0xbc500c9a	-0.012698317
231	0x3c75f2ea	0.0150115285
232	0x3dc01e6f	0.09380805
233	0xbd8036d2	-0.06260456
234	0xbc0f6b43	-0.0087536005
235	0x3d10fad5	0.035395462
236	0xbd704fc7	-0.05866983
237	0x3d402cdd	0.046917785
238	0x3d27816f	0.040894922
239	0xbd8582d4	-0.06519094
240	0x3d7289c8	0.05921343
241	0xbd51ee88	-0.05125287
242	0xbdd53f4e	-0.10412465
243	0x3cc7a2b6	0.024369579
244	0xbcf19d8a	-0.029494066
245	0xbdaaecf8	-0.083459795
246	0xbcb482b7	-0.022034986
247	0x3a8066ef	0.0009796302
248	0x3af4ac53	0.0018667079
249	0xbbd801c6	-0.0065920083
250	0xbd5eed71	-0.05442566
251	0x3b71483d	0.003681674
252	0x3d907798	0.07054061
253	0x3d088dfb	0.033338528
254	0x3da7aef7	0.08187669
255	0xbcdf10ed	-0.02722975

sequential/conv2d_1/Conv2D f4 [32, 2, 2, 64]
0	0x3dcf3c8f	0.101189725
1	0x3db77395	0.089575924
2	0x3dca81ec	0.09888062
3	0x3e0a53cb	0.13508527
4	0x3d3736a7	0.044729855
5	0x3c653076	0.013988605
6	0xbd9b9a9d	-0.075978495
7	0xbc7dec61	-0.015498252
8	0xbd94e1c0	-0.07269621
9	0xbd3982b2	-0.045290656
10	0x3ca28c3b	0.019842258
11	0x3c0a19cc	0.008429002
12	0xbd04d25a	-0.03242717
13	0xbe03e4ee	-0.12880298
14	0xbdf18a9d	-0.117940165
15	0x3d519e31	0.051176254
16	0x3de39d39	0.11113972
17	0xbd550605	-0.052007694
18	0xbcbbf727	-0.022945
19	0xbc3e34fc	-0.011609312
20	0xbddd3473	-0.108010195
21	0xbdb55e90	-0.08855927
22	0x3c61d0d9	0.013782703
23	0x3ca4c356	0.020112675
24	0x3d17dab8	0.03707382
25	0xbd2bc0a9	-0.041931782
26	0xbd8aefa9	-0.06783993
27	0x3cfa3d36	0.030546766
28	0xbdb2d660	-0.08732295
29	0x3dea1b51	0.114309914
30	0x3dab578a	0.08366306
31	0x3e50f628	0.20406401
32	0x3d2a8484	0.041630283
33	0xbda00847	-0.07814079
34	0x3cbcbccc	0.023039244
35	0x3d9eb6af	0.07749688
36	0xbda7298f	-0.081622235
37	0xbd816353	-0.06317773
38	0xbc5defcc	-0.013545942
39	0xbd8526e1	-0.06501556
40	0x3def99c6	0.11699252
41	0xbdf483f5	-0.11939231
42	0xbd1cd437	-0.03828832
43	0x3ddd8ebb	0.10818239
44	0x3d68a76e	0.0568003
45	0x3d3390b4	0.04383917
46	0xbd6678ad	-0.05626743
47	0xbdaefc8b	-0.085442625
48	0x3dfd0426	0.12354307
49	0xbdae855a	-0.085215285
50	0xbd4c0936	-0.04981347
51	0xbde4769d	-0.11155436
52	0x3d6f78d8	0.058464855
53	0x3dd5b12b	0.10434183
54	0x3ab176a7	0.001353939
55	0x3d201efe	0.039092056
56	0x3ce7266f	0.028216569
57	0xbc96ed2f	-0.018423645
58	0x3de5e0dc	0.11224529
59	0xbcba3a27	-0.022732807
60	0xbdb4a5fe	-0.08820723
61	0x3df6e66e	0.1205567
62	0x3dcb7e72	0.09936227
63	0x3dc47c8d	0.09594069
64	0x3c4b9b34	0.01242714
65	0x3c3a355c	0.011365261
66	0x3da0ce6b	0.07851871
67	0xbd4fcb56	-0.050731026
68	0x3df5e4ef	0.12006556
69	0x3d7d1e4d	0.061796475
70	0x3dcc6226	0.09979658
71	0xbdc23372	-0.09482469
72	0x3d10779e	0.035270326
73	0x3d9b9c10	0.07598126
74	0xbd5c3d80	-0.05376959
75	0x3d15110c	0.03639321
76	0x3d855611	0.065105565
77	0x3daeba2d	0.08531604
78	0xbd8e8693	-0.06959262
79	0xbdb85f6f	-0.090025775
80	0xbcb7872c	-0.022403322
81	0xbc9275ac	-0.017878376
82	0xbe0875b0	-0.13326144
83	0xbdb4a778	-0.08821005
84	0x3dbc1ee6	0.09185581
85	0x3daafeb9	0.08349366
86	0x3c10cda4	0.008838091
87	0x3d5ecd83	0.05439521
88	0xbc1782de	-0.00924751
89	0x3da7495a	0.081682876
90	0xbda6b873	-0.0814065
91	0x3c60c883	0.013719681
92	0x3d7a3b67	0.061091807
93	0xbd8dcfa2	-0.069243684
94	0xbca6ccc4	-0.020361312
95	0xbdfa485b	-0.12220832
96	0xbe1a6cb1	-0.15080525
97	0xbddf1841	-0.10893298
98	0xbdae6a43	-0.085163616
99	0xbd9f7ae3	-0.07787111
100	0xbd913e6d	-0.07091985
101	0x3d67cb0f	0.056590136
102	0x3b5c049c	0.0033572083
103	0xbdad2f1a	-0.084562495
104	0x3b4c911d	0.0031214424
105	0xbc6fbe61	-0.014632792
106	0xbacd8ae7	-0.0015681655
107	0xbaeb66e6	-0.0017959743
108	0xbd52f9e3	-0.05150784
109	0xbc95ae3a	-0.018271554
110	0xbd19aa03	-0.03751565
111	0x3c4fd208	0.012684353
112	0xbc0bc82e	-0.008531613
113	0xbdd01a85	-0.10161308
114	0x3cda190e	0.026623275
115	0x3bc76190	0.0060846284
116	0x3d0d13e1	0.034442786
117	0xbd8a4d3c	-0.067530125
118	0x3d179c55	0.037014324
119	0xbc9a6b00	-0.01884985
120	0x3c93b87e	0.018032309
121	0xbc9f4df1	-0.019446345
122	0x3cda4cf1	0.026648017
123	0xbded6dc5	-0.115932025
124	0x3d993087	0.07479959
125	0xbc034227	-0.008011377
126	0xbd1c8741	-0.038214926
127	0x3d04b398	0.032397836
128	0x3e079e87	0.13244067
129	0xbc977386	-0.018487703
130	0x3d09d1c2	0.033647306
131	0xbd9920f8	-0.074769914
132	0xbde55fc9	-0.1119991
133	0xbd1d1303	-0.03834821
134	0xbd5daceb	-0.054119986
135	0xbd55c787	-0.052192237
136	0x3d962a91	0.07332338
137	0x3dd52977	0.104082994
138	0xbd8b0ae3	-0.06789186
139	0x3ddb03e3	0.10694101
140	0xbce703b0	-0.0282
141	0xbb9cfdfd	-0.00479102
142	0x3df9bf52	0.121946946
143	0x3d228f84	0.03968765
144	0x3a62c8d2	0.00086511404
145	0x3d0f5e43	0.035002004
146	0x3de11de2	0.10992028
147	0x3e03ff5f	0.12890385
148	0xbbaaf4fb	-0.005217192
149	0xbc04e771	-0.008111821
150	0x3db1c150	0.086794496
151	0x3d5afed5	0.053465683
152	0x3dfccee8	0.12344152
153	0xbe04ded7	-0.12975632
154	0xbcb48ce9	-0.022039847
155	0xbe12329e	-0.14277121
156	0xbcb8d75c	-0.022563629
157	0x3dd7bb18	0.10533732
158	0x3d93a91d	0.0720999
159	0xbdb90073	-0.09033289
160	0xbb06d781	-0.0020575228
161	0x3d76e8f7	0.060280766
162	0x3d7d761f	0.061880227
163	0xbdbf5a64	-0.093434125
164	0x3d75eaeb	0.06003849
165	0x3ca92bef	0.020650832
166	0x3d48e822	0.049049504
167	0x3bc2834a	0.005936061
168	0x3df8764a	0.12131937
169	0xbd6665d1	-0.056249443
170	0x3db8c38a	0.09021671
171	0xbda22c16	-0.07918565
172	0x3dc2a89e	0.095048174
173	0x3d9b99de	0.07597707
174	0x3d155cc6	0.03646543
175	0xbdd89735	-0.105757155
176	0xbd071c73	-0.032986116
177	0xbda17795	-0.078841366
178	0xbdadf3d8	-0.08493775
179	0xbb9186e7	-0.0044411304
180	0xbdb7238b	-0.08942326
181	0xbd17d95c	-0.037072524
182	0x3ddca8a8	0.10774356
183	0xbe0269e0	-0.127357
184	0x3a7d69de	0.00096669595
185	0xbdf273fe	-0.1183853
186	0x3db4fb9f	0.088370554
187	0xbde98b07	-0.114034705
188	0x3e23ac73	0.15983753
189	0xbdcb6e38	-0.09933132
190	0x3d38d8fa	0.0451288
191	0x3c3f578c	0.011678588
192	0x3d2f4a15	0.04279526
193	0xbb5a4823	-0.0033307157
194	0xbd16cdde	-0.036817424
195	0xbc563529	-0.013074198
196	0x3db488d1	0.08815158
197	0x3de3d5f3	0.11124792
198	0xbdfe4ec4	-0.12417367
199	0xbdebfac1	-0.11522437
200	0x3d7fafc4	0.062423483
201	0xbbca9c48	-0.006183181
202	0xbdc449fa	-0.095844224
203	0xbdf81214	-0.12112823
204	0xbcdbb204	-0.026818283
205	0xbde763c3	-0.11298325
206	0xbdf16aa2	-0.11787917
207	0xbcce20ef	-0.025162188
208	0xbd2ab3ba	-0.041675307
209	0x3de2ba07	0.11070638
210	0xbdad579b	-0.08463975
211	0x3caab5dd	0.020838672
212	0x3dbd644b	0.09247645
213	0x3dcf59c1	0.10124541
214	0xbdb77c25	-0.089592256
215	0xbd243438	-0.040088862
216	0xbd999467	-0.074990086
217	0xbd673682	-0.056448467
218	0xbc429265	-0.0118757235
219	0xb9999d52	-0.00029299647
220	0xbc64490e	-0.013933433
221	0xbdb27e8a	-0.08715542
222	0xbda4fb62	-0.0805576
223	0x3dae39c5	0.085071124
224	0xbe01a6ca	-0.12661281
225	0xbd6c13d9	-0.057636116
226	0xbdb4534a	-0.08804949
227	0x3cf97167	0.030449582
228	0xbd6da92d	-0.058022667
229	0x3c9a475c	0.018832855
230	0xbd1a6cd3	-0.03770144
231	0xbd87cf11	-0.06631292
232	0xbd9d1393	-0.07669749
233	0x3daa6074	0.08319178
234	0x3e00f602	0.12593845
235	0xbdc8cab9	-0.09804291
236	0xbd2ff277	-0.042955842
237	0xbd07d680	-0.033163548
238	0x3e1179ff	0.14206694
239	0x3ca3ebfd	0.020009989
240	0xbd9d790e	-0.07689105
241	0xbcf5fca7	-0.0300277
242	0xbd86fe23	-0.065914415
243	0x3d52461b	0.05133639
244	0xbd8c41ad	-0.06848464
245	0xba21f602	-0.00061783206
246	0xbbb403f1	-0.005493634
247	0x3d3a3e23	0.045469414
248	0x3e0bb33f	0.13642596
249	0xbc89c778	-0.016818747
250	0xbdcb6eba	-0.09933229
251	0xbdc48ed7	-0.09597557
252	0xbdd4a4cd	-0.10382996
253	0xbd18a259	-0.0372642
254	0x3cddf44f	0.027094034
255	0x3d548310	0.051882803

sequential/dense/BiasAdd/ReadVariableOp f4 [128]
0	0xbc6184d1	-0.013764576
1	0xbbd278cb	-0.006423091
2	0x3be50d70	0.0069901273
3	0xbd05ac50	-0.032635033
4	0xbd1e72cf	-0.03868371
5	0xbba81e0e	-0.005130536
6	0xbcb83fdb	-0.022491386
7	0xbccb546d	-0.02482053
8	0xbce48451	-0.027895125
9	0xbc92b2b1	-0.017907472
10	0x3c068ba2	0.008212002
11	0xbd0388f5	-0.032113034
12	0x3c61a697	0.013772628
13	0xbd33783d	-0.04381584
14	0xb9e5448b	-0.00043729352
15	0xbd0faea6	-0.035078667
16	0xbc154a79	-0.009111994
17	0x3c8922c5	0.016740212
18	0xbcac72e0	-0.02105087
19	0x3c43153b	0.011906917
20	0xbc9d92b9	-0.019235002
21	0xbc0b5d1b	-0.008506085
22	0xbd016e9b	-0.031599622
23	0xbd0ca43c	-0.034336314
24	0x3ccecb40	0.025243402
25	0x3befd83f	0.0073194797
26	0x3c52040d	0.012818349
27	0xbcb722b9	-0.022355424
28	0xbc3809a2	-0.011232765
29	0xbb887501	-0.0041643386
30	0x3c1423c0	0.009041727
31	0xbd1ff9cb	-0.03905658
32	0x3bd5e4eb	0.0065275333
33	0xbcbfe116	-0.023422759
34	0xbce6430e	-0.028108146
35	0xbc76f7c1	-0.015073718
36	0xbd03ff68	-0.032225996
37	0x3c2383a7	0.009980119
38	0xbcf1b25a	-0.02950399
39	0xbcc1e492	-0.023668561
40	0xbd44e393	-0.048068594
41	0x3ce2d593	0.02768973
42	0x3bae8a58	0.0053265505
43	0xbb5a0ccb	-0.0033271785
44	0xbc7dd47d	-0.015492556
45	0x3c8e3adf	0.017362056
46	0xbc44b8a6	-0.012006914
47	0xbc20bc48	-0.009810515
48	0xbcbbfc1c	-0.022947364
49	0x3c37d829	0.01122097
50	0xbcefd250	-0.02927509
51	0xbcd21378	-0.025644049
52	0x3c33e3fd	0.01097965
53	0x3c6d6363	0.014489028
54	0xbcf3f504	-0.029779918
55	0xbc80edba	-0.015738357
56	0x3b66d116	0.003521984
57	0xbc9163f0	-0.01774785
58	0xbd5776fc	-0.052603707
59	0xbc9e81ca	-0.019348998
60	0xbcffff8d	-0.031249786
61	0xbbc4deb6	-0.0060079945
62	0xbc59aefb	-0.0132863475
63	0xbc82f050	-0.01598373
64	0xbc9f6499	-0.019457148
65	0xbcc577dd	-0.024105007
66	0xbcb9d63c	-0.022685163
67	0xbc8c08b6	-0.017093997
68	0xbb4dae5d	-0.0031384446
69	0xbd120790	-0.035651743
70	0xbd0c70d6	-0.034287296
71	0xbc8c168f	-0.0171006
72	0x3cebbc38	0.028776273
73	0x3c6a8787	0.014314539
74	0xbd5b5ffa	-0.053558327
75	0xbce57bd7	-0.028013153
76	0xbc6f7e95	-0.014617582
77	0x3b710ca1	0.003678121
78	0xbc4f8629	-0.012666264
79	0x3bbc4fef	0.0057468335
80	0x3be0dd49	0.0068623167
81	0xbb945cd2	-0.0045276666
82	0xbd350322	-0.04419244
83	0xbca156f4	-0.019694783
84	0xbd1a9840	-0.037742853
85	0xbc2c0e75	-0.010501494
86	0xbc14decc	-0.009086322
87	0xbb3507e2	-0.0027623107
88	0x3c493095	0.012279649
89	0xbbdc7363	-0.0067276224
90	0xbcaa13ea	-0.020761449
91	0xbcb6c7fe	-0.02231216
92	0xbc54878f	-0.012971773
93	0xbbfae865	-0.007657098
94	0xbce1337c	-0.02749037
95	0xbcc1c226	-0.023652148
96	0x3b0d0b99	0.0021521805
97	0x3c8d1830	0.017223448
98	0x3c45a32a	0.012062827
99	0xbd3fcb22	-0.046824582
100	0x3b987d4d	0.004653609
101	0xbc55f34c	-0.013058495
102	0xbc3c1f41	-0.011482061
103	0xbc36ad81	-0.011149765
104	0xbc1d93cd	-0.009617758
105	0x3c6cf91f	0.014463692
106	0xbb8cea32	-0.004300379
107	0xbd4267aa	-0.047462143
108	0xbcae231f	-0.021256981
109	0x3c0acf3a	0.008472258
110	0xba207a23	-0.00061217154
111	0xbaebaca3	-0.0017980527
112	0xbc46e968	-0.012140609
113	0xbd13bc2d	-0.03606813
114	0xbcd9560b	-0.026530286
115	0xbb2ea803	-0.0026650436
116	0xbc954d0e	-0.01822522
117	0xbc811fbb	-0.0157622
118	0xbc010d5a	-0.007876718
119	0x3bc5f8df	0.0060416306
120	0x3cb5e6cb	0.022204777
121	0xbcac3977	-0.021023495
122	0xbcae57d3	-0.021282112
123	0xbc3f95c2	-0.01169342
124	0xbc300d19	-0.01074531
125	0x3be77edc	0.0070646834
126	0xbc379b05	-0.011206393
127	0x3c2853b7	0.010273865

sequential/dense_2/BiasAdd/ReadVariableOp f4 [3]
0	0x3bbbef4d	0.005735314
1	0xbd1e96f2	-0.03871817
2	0x3cf8dba3	0.030378168

sequential/dense_1/BiasAdd/ReadVariableOp f4 [64]
0	0x3c2f5ed5	0.010703762
1	0xbcabc8d1	-0.02096978
2	0xbd35bc0e	-0.044368796
3	0x3d008a2e	0.03138178
4	0xbc958ff1	-0.018257113
5	0xbc584d5a	-0.013202036
6	0x3d3d69b6	0.046243392
7	0xbcdb7b42	-0.026792172
8	0x3ba6640e	0.0050778454
9	0x3d30434e	0.043032937
10	0x3c93f47f	0.01806092
11	0xbb8b1974	-0.0042449776
12	0x3c40a1fd	0.011757371
13	0xbbcd7ada	-0.0062707486
14	0xbbe8a989	-0.0071002883
15	0x3cf36e0d	0.029715562
16	0xbbac23c2	-0.005253286
17	0x3b80bd04	0.0039287824
18	0x3b0ef9d0	0.002181638
19	0xbc91e127	-0.017807556
20	0x3bd111f9	0.0063803163
21	0xbd103ff8	-0.035217255
22	0xbc07daaa	-0.00829188
23	0x3954da4c	0.00020299217
24	0x3cc8911c	0.024483256
25	0xbb285770	-0.0025686882
26	0xbcb19240	-0.021676183
27	0xbd13caf3	-0.03608222
28	0x3d1ed465	0.038776774
29	0x3d34e3d0	0.04416257
30	0x3b0bbeca	0.0021323436
31	0x3c927484	0.017877825
32	0x3c551c8e	0.013007296
33	0x3ca80e73	0.020514702
34	0xbc17ef27	-0.009273327
35	0x3c48d96a	0.012258867
36	0xba3d615e	-0.00072242867
37	0x3c3c6371	0.011498318
38	0x3d301d03	0.042996418
39	0x3c7771bc	0.0151028
40	0x3c76b6d6	0.01505824
41	0x3cf1e514	0.029528178
42	0x3c69792f	0.014250084
43	0x3c56e666	0.013116455
44	0xbbf3c1d3	-0.007438877
45	0xbc9cdf6f	-0.01914951
46	0xbcf6dde6	-0.030135106
47	0xbcd5d22b	-0.026101192
48	0xbc548fdf	-0.012973755
49	0xbc2febd6	-0.01073738
50	0x3bf29207	0.0074026617
51	0x3cf81bda	0.030286718
52	0xbcc20288	-0.023682848
53	0xbc87de6e	-0.016585555
54	0xbc936cbe	-0.017996188
55	0xbb3bbb36	-0.0028645522
56	0xbbbdca51	-0.0057919403
57	0xbd17125c	-0.036882743
58	0x3d469502	0.04848195
59	0x3c3b1cb2	0.011420416
60	0xbcdbdac3	-0.026837712
61	0x3c3a3f88	0.011367686
62	0xbbca5cc4	-0.0061756093
63	0x3d047134	0.03233452

sequential/batch_normalization/FusedBatchNormV3 f4 [64]
0	0x40dcc6ac	6.899252
1	0x40f0212d	7.50405
2	0x40b9aea1	5.802567
3	0x409a5dad	4.823935
4	0x40eba6da	7.3641176
5	0x40a5b39a	5.178174
6	0x40ca0d42	6.3141184
7	0x41214c2d	10.081098
8	0x40bf4bf5	5.978022
9	0x40d7a277	6.738582
10	0x410c6403	8.774417
11	0x4133b66d	11.232038
12	0x413dec2d	11.87016
13	0x40a184d4	5.0474644
14	0x40bf0995	5.9699197
15	0x41234576	10.204458
16	0x41060aad	8.377606
17	0x40789379	3.884001
18	0x4117b98e	9.482801
19	0x40c5f781	6.186463
20	0x406f2f21	3.7372515
21	0x40afd7a5	5.495074
22	0x40d13e52	6.5388575
23	0x40a5049f	5.156814
24	0x409c41fd	4.883055
25	0x40ddfe60	6.9373016
26	0x40fff1fc	7.998289
27	0x411886d4	9.532917
28	0x40b62890	5.6924515
29	0x408dc8b3	4.4307494
30	0x40fd19e4	7.9094105
31	0x40fb8e7d	7.8611436
32	0x41132fcc	9.199169
33	0x4101e6a8	8.118813
34	0x4109af9f	8.605376
35	0x404f04bc	3.234664
36	0x40fe2377	7.941829
37	0x40fd796b	7.9210715
38	0x41136efa	9.214594
39	0x40d92d2e	6.786765
40	0x411c32d8	9.762413
41	0x40fb768e	7.858222
42	0x40b8d2b0	5.7757187
43	0x40bc78a7	5.889728
44	0x40a6bbd4	5.210428
45	0x40c15233	6.041284
46	0x40cf91dc	6.486555
47	0x40a0e15e	5.0275106
48	0x40802f6a	4.005788
49	0x40daeed8	6.8416557
50	0x40bc2fd0	5.8808365
51	0x40f5d2bb	7.681974
52	0x40d27fdf	6.5781093
53	0x4086d9a1	4.214066
54	0x409ff50d	4.9986634
55	0x40ef7438	7.482937
56	0x40fb528e	7.8538275
57	0x40a7eebe	5.2478933
58	0x40967c6b	4.7026877
59	0x40ac2dbe	5.380584
60	0x408e49ed	4.446524
61	0x40d45f12	6.6366053
62	0x4112753d	9.153623
63	0x40f025cf	7.5046153

sequential/batch_normalization/FusedBatchNormV31 f4 [64]
0	0xbf182854	-0.59436536
1	0xbf4d0e8c	-0.8010032
2	0xbf124385	-0.57134277
3	0xbf4becd6	-0.7965826
4	0xbf7932ce	-0.97343147
5	0xbf31d858	-0.6947074
6	0xbf489e84	-0.78366876
7	0xbf52a211	-0.82278544
8	0xbf69abab	-0.9127757
9	0xbf47c441	-0.78033835
10	0xbef86774	-0.48516428
11	0xbeddec42	-0.43344313
12	0xbea1d320	-0.31606388
13	0xbf3b891a	-0.73256075
14	0xbf641498	-0.89093924
15	0xbf06cd82	-0.5265733
16	0xbf4c6e10	-0.7985544
17	0xbf143b58	-0.5790305
18	0xbf49cd78	-0.78829145
19	0xbf331535	-0.69954234
20	0xbf63197b	-0.88710755
21	0xbf0fe7a5	-0.56212837
22	0xbf7680de	-0.96290386
23	0xbf5d88cf	-0.8653688
24	0xbee6a56e	-0.45048088
25	0xbf3a7f1c	-0.72850204
26	0xbf1f783f	-0.62292856
27	0xbf233737	-0.63756126
28	0xbf7be396	-0.98394144
29	0xbf49fdf7	-0.78903145
30	0xbf217b2a	-0.6307856
31	0xbf3137f0	-0.6922598
32	0xbf1ffb61	-0.6249295
33	0xbf3209d4	-0.69546247
34	0xbf5c7f80	-0.8613205
35	0xbf039e95	-0.5141385
36	0xbf647264	-0.89237046
37	0xbf1a4d4c	-0.60274196
38	0xbf2ee3d8	-0.6831641
39	0xbf07ca1f	-0.5304279
40	0xbf033b6a	-0.51262534
41	0xbf44b3c0	-0.76836777
42	0xbf35f07f	-0.7107009
43	0xbf418127	-0.75587696
44	0xbef29008	-0.47375512
45	0xbf6c2b28	-0.9225335
46	0xbef587f8	-0.47955298
47	0xbf271a44	-0.65274453
48	0xbf4d9d83	-0.8031847
49	0xbf2bbde1	-0.6708661
50	0xbf57547f	-0.84113306
51	0xbf29c711	-0.66319376
52	0xbf8e12bb	-1.1099466
53	0xbf26cb49	-0.6515394
54	0xbf4310aa	-0.761973
55	0xbf7c0b1f	-0.9845447
56	0xbf1e01fe	-0.6172179
57	0xbf3e87db	-0.7442605
58	0xbf00bf81	-0.5029221
59	0xbf29e870	-0.66370296
60	0xbf12ba7a	-0.5731579
61	0xbf393289	-0.72342736
62	0xbf4f0950	-0.80873585
63	0xbf0f3eea	-0.55955374

sequential/batch_normalization_1/FusedBatchNormV3 f4 [32]
0	0x3fb6926a	1.4263432
1	0x3f436ded	0.7633961
2	0x3fc078e2	1.503689
3	0x3fc1ec53	1.5150245
4	0x3fb3687f	1.4016265
5	0x3fa5238a	1.2901471
6	0x3fc3813e	1.5273817
7	0x3f90fe65	1.1327635
8	0x3fcd48e6	1.6037872
9	0x3faf7198	1.3706541
10	0x3fcf96c1	1.6217881
11	0x3ee1cd09	0.44101742
12	0x3faec599	1.3654052
13	0x3fc2410c	1.5176101
14	0x3f916542	1.1359026
15	0x3fa742ae	1.3067224
16	0x3f3dab2c	0.7408931
17	0x3fc82bb3	1.5638336
18	0x3fda9363	1.7076229
19	0x3fae06f4	1.3595872
20	0x3fcf9f71	1.6220533
21	0x3f93eb5c	1.1556201
22	0x3f964ff5	1.1743151
23	0x3f7e2611	0.99276835
24	0x3fb830af	1.4389857
25	0x3f503a55	0.8133901
26	0x3f8d8de2	1.1058924
27	0x3fdc8abb	1.7229837
28	0x3fb1bddc	1.3886065
29	0x3fbfe1d7	1.4990796
30	0x3fbc222e	1.4697931
31	0x3f3c8150	0.73634815

sequential/batch_normalization_1/FusedBatchNormV31 f4 [32]
0	0xbf9ac4e5	-1.2091337
1	0xbf1f973b	-0.62340134
2	0xbf905aae	-1.1277673
3	0xbfb5d423	-1.4205364
4	0xbfa23890	-1.2673512
5	0xbfb0671b	-1.3781465
6	0xbf918d64	-1.1371274
7	0xbf55e5f6	-0.8355402
8	0xbf84103b	-1.0317453
9	0xbfc61c69	-1.547742
10	0xbfae1d8e	-1.3602769
11	0xbf343d06	-0.70405614
12	0xbf9f5302	-1.2447207
13	0xbfa4bece	-1.2870729
14	0xbfa449cc	-1.2835021
15	0xbf9fe170	-1.2490673
16	0xbf2f1881	-0.68396765
17	0xbf9f3ab0	-1.2439785
18	0xbf8bc232	-1.0918639
19	0xbfb49b1d	-1.4109837
20	0xbfba64a3	-1.4561962
21	0xbf9d6c9a	-1.2298768
22	0xbf8e481a	-1.1115754
23	0xbf79f9b8	-0.97646666
24	0xbfa1355a	-1.2594407
25	0xbf33ca4f	-0.70230573
26	0xbf887f8f	-1.0663928
27	0xbfc0bec8	-1.5058222
28	0xbfd44086	-1.6582191
29	0xbf82e121	-1.0224954
30	0xbfaa4cda	-1.3304703
31	0xbf4a8ad8	-0.7911811

sequential/dense/MatMul f4 [128, 288]
0	0x3dc936e3	0.09824922
1	0x3d07d975	0.033166368
2	0x3c2cd483	0.010548714
3	0xbd8b415c	-0.06799576
4	0xbd68e124	-0.056855336
5	0xbc28e654	-0.010308821
6	0xbda186b0	-0.07887018
7	0xbd46d850	-0.048546135
8	0x3e0422b2	0.1290386
9	0xbc35d4aa	-0.011098066
10	0x3d2b0d46	0.041760705
11	0xbdec66e2	-0.11543061
12	0x3dddb201	0.10824967
13	0x3d9fca10	0.07802212
14	0xbdb7aafa	-0.08968158
15	0xbd05a920	-0.032631993
16	0x3dccba49	0.099964686
17	0xbbea4970	-0.0071498677
18	0xbdd1460e	-0.1021844
19	0xbdcfa02a	-0.10137971
20	0x3d939087	0.07205301
21	0xbd3cc9cf	-0.046090897
22	0x3d28c26e	0.041201048
23	0xbc63f50b	-0.013913403
24	0x3d4545f7	0.048162427
25	0x3ddc2486	0.10749154
26	0xbd977cfa	-0.07396884
27	0x3e0804b8	0.1328305
28	0x3b8cb971	0.0042945673
29	0x3d8c0185	0.06836227
30	0xbca7f858	-0.020504162
31	0x3d9e8e60	0.077419996
32	0xbc945b63	-0.018109983
33	0x3d6302a1	0.05542243
34	0x3dcfafa5	0.101409234
35	0xbd4bd1a8	-0.04976049
36	0x3c9bbe0b	0.019011518
37	0x3d17bd9c	0.03704606
38	0x3e070eb2	0.131892
39	0x3db26e77	0.08712476
40	0xbd4922aa	-0.049105324
41	0xbd8df5c3	-0.06931641
42	0x3d96dba1	0.0736611
43	0x3c707afd	0.01467776
44	0xbd6095f9	-0.054830525
45	0xbdb2bd2e	-0.087274894
46	0xbe18d31b	-0.1492428
47	0x3cd2d18f	0.025734691
48	0xbdab190f	-0.08354389
49	0xbc9e743d	-0.019342536
50	0x3d9ff991	0.07811273
51	0x3e2285f0	0.15871406
52	0xbd9c2237	-0.076237135
53	0x3d218323	0.039431702
54	0x3c36fed8	0.011169158
55	0x3d3c6ed0	0.046004117
56	0xbd122aa1	-0.035685185
57	0xbd79e969	-0.061013613
58	0xbd9d714a	-0.07687624
59	0xbd3ad571	-0.04561371
60	0xbdadcd81	-0.084864624
61	0xbdb39385	-0.087683715
62	0x3d37e899	0.044899557
63	0xbd52629a	-0.051363565
64	0xbc0f0a04	-0.008730415
65	0x3c562a21	0.013071568
66	0xbdce7061	-0.10080028
67	0xbcc40e03	-0.023932463
68	0xbdf8f4a1	-0.12156034
69	0x3d892552	0.066965714
70	0xbd70ff20	-0.058837056
71	0xbd25bf1d	-0.040465463
72	0x3d2eb176	0.04264971
73	0xbd6c4544	-0.057683244
74	0x3ca7c162	0.020477954
75	0xbd64735c	-0.055774078
76	0x3ddc39d3	0.107532166
77	0xbd959e36	-0.07305567
78	0x3dfaaa63	0.1223953
79	0x3d05e47d	0.032688607
80	0xbbcbcdbf	-0.006219595
81	0x3d378f6c	0.044814512
82	0x3df61312	0.12015356
83	0x3da7db77	0.081961565
84	0x3d12975e	0.035788886
85	0xbc8eb85f	-0.0174219
86	0x3c82e1d6	0.015976828
87	0x3dc1bafa	0.09459491
88	0xbda63b1c	-0.08116743
89	0x3de7c9d2	0.11317791
90	0x3d53f3eb	0.05174629
91	0xbd2d41f6	-0.042299233
92	0xbd8ad39f	-0.06778645
93	0x3e331956	0.17490134
94	0x3da65589	0.08121783
95	0x3ddc9aa4	0.10771683
96	0xbde4912d	-0.111605026
97	0xbd08f3ad	-0.033435512
98	0xbd161ad6	-0.036646686
99	0xbd317139	-0.04332087
100	0x3da6c5eb	0.081432186
101	0x3db08b69	0.086203404
102	0x3d6a20da	0.057160236
103	0x3e3b0d84	0.18266875
104	0x3c3e9a12	0.011633413
105	0x3d9ecad7	0.077535324
106	0x3d8ee575	0.06977359
107	0xbd0c859b	-0.034307104
108	0x3daad027	0.08340483
109	0x3d82977b	0.06376549
110	0xbd81c925	-0.063371934
111	0x38b563c1	8.649333e-05
112	0x3bd334ef	0.006445519
113	0xbd87c68e	-0.06629668
114	0xbd71c716	-0.059027754
115	0xbdbe3546	-0.09287505
116	0xbd3fdb98	-0.04684028
117	0x3dccbea5	0.099973
118	0x3e09093f	0.13382433
119	0x3d8f02f5	0.06982986
120	0xbd8c7106	-0.06857495
121	0xbdc6ea97	-0.09712713
122	0x3d57e2b4	0.052706435
123	0x3ddd6917	0.1081106
124	0xbe02a7c4	-0.1275931
125	0x3da10e6c	0.07864079
126	0x3da6e5b0	0.08149278
127	0x3c924046	0.017852914
128	0x3da39db9	0.079890676
129	0x3d50aa6f	0.05094379
130	0xbdfc7465	-0.12326888
131	0x3d550571	0.052007142
132	0x3de726b5	0.1128668
133	0x3db66a4c	0.08906993
134	0x3d8728ba	0.06599565
135	0xbd332524	-0.043736592
136	0xbda75ea3	-0.081723474
137	0xbd78df21	-0.060759667
138	0xbdae6a0a	-0.08516319
139	0xbda47bcd	-0.080314256
140	0xbd7a9e99	-0.061186407
141	0xbd9f7192	-0.07785334
142	0xbce26345	-0.027635226
143	0xbdceeaa0	-0.10103345
144	0x3dcb4310	0.099249005
145	0xbd937856	-0.07200687
146	0x3db933bc	0.09043071
147	0x3cf2dfcd	0.029647732
148	0x3d3d302f	0.04618853
149	0x3ccf2f84	0.025291212
150	0x3dbc68bb	0.09199663
151	0x3e0735cf	0.1320412
152	0xbd5330bb	-0.051560145
153	0xbd8e6e57	-0.069546394
154	0xbd044999	-0.03229675
155	0x3d826f6d	0.06368909
156	0xbcfde66b	-0.03099366
157	0x3c534dda	0.012896979
158	0xbde5921e	-0.1120951
159	0x3dedda11	0.116138585
160	0xbd95a9ae	-0.073077545
161	0x3d292357	0.04129347
162	0xbc1adeeb	-0.009452562
163	0xbd9e0e35	-0.077175535
164	0x3dfc25b5	0.123118795
165	0xbd2328ad	-0.039833713
166	0x3d41dede	0.047331683
167	0x3dbf743b	0.09348341
168	0x3d2ba557	0.041905727
169	0xbcf04933	-0.02933178
170	0x3d0ad52c	0.033894703
171	0xbc73f767	-0.014890528
172	0x3d105e86	0.035246395
173	0xbd17c9f6	-0.03705784
174	0xbdab56bd	-0.083661534
175	0x3da30547	0.07959991
176	0x3ccd127d	0.02503323
177	0x3d511039	0.05104086
178	0x3dfae803	0.12251284
179	0x3d686133	0.05673332
180	0x3ce0d255	0.027444044
181	0x3d7dc92e	0.061959438
182	0xbd54ceba	-0.051954962
183	0x3de001d1	0.109378465
184	0x3ceffa23	0.02929408
185	0x3c42ec4a	0.011897156
186	0x3d9cdfa9	0.07659847
187	0xbde5097f	-0.11183452
188	0xbdb265a6	-0.08710794
189	0xbcccd839	-0.025005447
190	0x3da6155f	0.08109545
191	0x3cd20736	0.025638204
192	0xbc5253e4	-0.012837384
193	0xbb1d0c7d	-0.0023963742
194	0x3cc623c3	0.024186974
195	0x3d41c841	0.047310118
196	0xbc1fb425	-0.00974754
197	0x3d97ad9f	0.074061625
198	0xbd746955	-0.059670765
199	0xbbd60329	-0.0065311384
200	0xbd990904	-0.07472423
201	0x3de0db68	0.109793484
202	0xbdcb6c11	-0.099327214
203	0x3c2a7a04	0.010405067
204	0x3d9447a0	0.07240224
205	0x3dd7e397	0.10541456
206	0x3e03dad6	0.12876448
207	0xbcc2891d	-0.023747021
208	0x3d3c2ed5	0.0459431
209	0xbd158ced	-0.03651135
210	0x3df52955	0.11970774
211	0x3d90f41e	0.07077812
212	0x3dda8791	0.106703885
213	0x3d60010f	0.05468851
214	0xbdbc904e	-0.092072114
215	0x3cdab3bf	0.026697038
216	0xbccc36ec	-0.024928533
217	0xbd2344a6	-0.03986039
218	0x3df60cba	0.12014146
219	0x3cf76a64	0.030202098
220	0x3dbf6787	0.09345918
221	0x3d93ebe4	0.07222727
222	0x390768b2	0.00012913605
223	0x3dbe9f99	0.093077846
224	0x3d4659c5	0.048425455
225	0xbce890f5	-0.028389433
226	0x3e16affe	0.14715573
227	0xbd4f2888	-0.050575763
228	0xbdbe329a	-0.09286995
229	0xbda80531	-0.08204115
230	0xbc030d28	-0.007998742
231	0x3d221c24	0.03957762
232	0x3a3399fb	0.0006851253
233	0xbe092eff	-0.13396834
234	0xbd09b320	-0.033618093
235	0xbd93456f	-0.07190978
236	0xbd572c86	-0.052532695
237	0xbcd1ab71	-0.025594445
238	0xbe083ba2	-0.13303998
239	0xbda23bf3	-0.07921591
240	0xbd657edb	-0.056029182
241	0xbc711eaa	-0.014716784
242	0xbda8da7d	-0.08244798
243	0x3d5e9166	0.05433788
244	0x3d86a688	0.06574732
245	0x3d50a35d	0.050937045
246	0xbb417c4f	-0.0029523557
247	0xbce8fe9d	-0.028441722
248	0x3d3a7a76	0.045526944
249	0xbd3003b9	-0.0429723
250	0xbddf75c4	-0.10911134
251	0xbdf9d492	-0.12198748
252	0x3b0b93a8	0.0021297727
253	0x3d0135c1	0.031545404
254	0x3c821cc4	0.015882857
255	0x3dd388ce	0.10328828

sequential/dense_1/MatMul f4 [64, 128]
0	0xbe1f8db7	-0.15581404
1	0x3dc6347b	0.096779786
2	0x3cf568c4	0.029957183
3	0xbda0b77a	-0.078474954
4	0xbc8bb31b	-0.017053178
5	0xbc427ff8	-0.01187133
6	0xbdbe6345	-0.09296278
7	0xbc55baf3	-0.01304506
8	0xbdf16ba0	-0.11788106
9	0x3dad1709	0.08451659
10	0x3d76c804	0.060249344
11	0x3e1e16c4	0.15438372
12	0xbe24a7bf	-0.16079615
13	0xbd8d2913	-0.068926
14	0xbd3428a8	-0.043984085
15	0x3d7349e9	0.059396658
16	0x3d6f0d71	0.058362428
17	0x3d59ddbc	0.053189978
18	0x3e37efec	0.17962617
19	0xbdc4a697	-0.09602087
20	0x3bd3a02f	0.0064583044
21	0x3e0e6d1d	0.13908811
22	0x3db7ed12	0.089807644
23	0x3ce38fa8	0.027778462
24	0xbc441265	-0.011967276
25	0x3dc8164a	0.09769876
26	0xbd5a5bd3	-0.053310227
27	0xbc2dde70	-0.010612115
28	0xbe221bca	-0.15830913
29	0xbb979536	-0.0046259416
30	0x3e12252c	0.14271992
31	0x3dc5d4b4	0.096597105
32	0x3e342642	0.17592719
33	0x3dd537a9	0.10411007
34	0xbda9295d	-0.082598425
35	0xbe4623fc	-0.19349664
36	0xbdbf3581	-0.09336377
37	0xbdae9d69	-0.08526117
38	0x3b745496	0.0037281862
39	0xbc99a818	-0.018756911
40	0x3c4cf618	0.012509845
41	0xbde87992	-0.11351313
42	0xbdc2f502	-0.09519388
43	0x3c37a454	0.0112086125
44	0x3cc11531	0.023569675
45	0x3e01ae3e	0.12664124
46	0x3e482327	0.1954466
47	0x3d9ea267	0.077458195
48	0xbc31d7d9	-0.010854685
49	0xbd150718	-0.03638372
50	0xbdd5b7ad	-0.10435424
51	0x3e0b02f1	0.13575341
52	0xbcec1edb	-0.028823307
53	0x3dc0ef66	0.09420662
54	0x3d121255	0.035662014
55	0x3de6d47b	0.11270996
56	0x3e1ad67a	0.15120879
57	0x3cddb97f	0.02706599
58	0xbe0e23a2	-0.1388078
59	0xbd4dbcde	-0.050228946
60	0x3de57e1d	0.11205695
61	0x3d52ffda	0.05151353
62	0x3cbc1ea6	0.022963833
63	0xbdd6ccaa	-0.10488255
64	0xbdcb7b45	-0.09935621
65	0x3d9f3c72	0.07775201
66	0x3cea198f	0.02857664
67	0xbdeb773b	-0.11497351
68	0x3d76fbd0	0.06029874
69	0xbdb1b871	-0.086777575
70	0xbe0a8502	-0.13527301
71	0xbe0692fb	-0.13142006
72	0xbd4bade4	-0.049726382
73	0x3e0e8bee	0.13920566
74	0x3d46401b	0.04840098
75	0xbdcdb7db	-0.10044833
76	0xbb40a206	-0.0029393448
77	0xbd88b287	-0.066746764
78	0x3dddd242	0.10831119
79	0xbdcb2083	-0.099183105
80	0xbe21b915	-0.1579326
81	0x3db1b172	0.08676423
82	0x3e113995	0.14182122
83	0x3e0659c4	0.1312018
84	0xbe04da33	-0.12973861
85	0xbe1c8ddc	-0.1528849
86	0x3c838da6	0.016058754
87	0xbc642c11	-0.013926522
88	0x3e0354ea	0.12825361
89	0xbd0f4565	-0.03497829
90	0x3e1189c5	0.14212711
91	0xbe1df700	-0.15426254
92	0x3e0b10aa	0.13580576
93	0x3da20a37	0.079121046
94	0xbdff093d	-0.12452934
95	0x3da157bd	0.07878063
96	0x3df37bf9	0.1188888
97	0xbc6ff33b	-0.014645393
98	0xbe081a21	-0.13291217
99	0xbd4bcf8e	-0.049758486
100	0x3d9a6288	0.075383246
101	0xbe21a1db	-0.15784399
102	0x3dd1d952	0.10246529
103	0xbd2be5a5	-0.041967053
104	0x3df2c988	0.11854845
105	0x3dc79b7a	0.09746452
106	0x3b24b77a	0.0025133775
107	0xbca24140	-0.019806504
108	0xbe1c7624	-0.15279442
109	0xbe2e8b1c	-0.17045254
110	0xbc9a5db3	-0.018843507
111	0xbe2b24e7	-0.16713296
112	0x3d684c3b	0.056713324
113	0x3dc8c51c	0.09803221
114	0x3dada368	0.08478433
115	0xbdbe83b7	-0.09302466
116	0x3d8e1597	0.06937712
117	0x3d9bdc6d	0.07610402
118	0x3dba61d6	0.09100692
119	0x3dd376e6	0.103254125
120	0xbe172688	-0.14760792
121	0xbd21c961	-0.03949869
122	0x3dd14855	0.10218874
123	0x3d970da5	0.07375649
124	0xbdfc7503	-0.12327006
125	0xbe0fbf50	-0.14037824
126	0xbde293ac	-0.110633224
127	0xbdecc023	-0.11560085
128	0x3d4916be	0.049093954
129	0xbe344a45	-0.17606457
130	0x3d410f59	0.047133777
131	0x3df2e489	0.11859996
132	0x3cec739b	0.028863719
133	0x3daffe68	0.08593446
134	0xbd8b499e	-0.06801151
135	0xbdd68f9a	-0.104766086
136	0xbd13e53f	-0.036107298
137	0x3d6931d8	0.0569323
138	0x3ddc07da	0.10743685
139	0xbe014a2c	-0.1262595
140	0x3d3b707f	0.04576158
141	0x3e208299	0.15674819
142	0x3df57ca6	0.119866654
143	0x3d4657b0	0.04842347
144	0x3d9446c2	0.072400585
145	0xbe090a69	-0.13382877
146	0xbd6f6b80	-0.05845213
147	0x3cd6f259	0.026238607
148	0xbda87b1c	-0.08226606
149	0x3d98bddb	0.07458087
150	0xbd4646d9	-0.04840741
151	0xbdcfdc03	-0.10149386
152	0x3e125325	0.1428953
153	0x3cabbe4c	0.020964764
154	0xbe24b1c3	-0.16083436
155	0xbcb8158e	-0.022471216
156	0xbddb26cc	-0.10700759
157	0xbe44ef10	-0.1923182
158	0x3dacc249	0.084354945
159	0xbe0ec8dd	-0.13943811
160	0x3dab125b	0.083531104
161	0xbe142913	-0.14468794
162	0xbda38977	-0.07985204
163	0x3af445f3	0.0018636569
164	0x3da3712c	0.0798057
165	0x3c51144d	0.012761188
166	0x3cd007ab	0.025394281
167	0x3da8d8bb	0.08244463
168	0x3d851b05	0.06499294
169	0x3c023857	0.007948003
170	0x3d5286e6	0.05139818
171	0x3c08ce2f	0.008349939
172	0x3d8e28fe	0.069414124
173	0xbd84bd13	-0.064813755
174	0x3dfff9d6	0.12498824
175	0xbe19e359	-0.15028132
176	0xbd9c23fc	-0.07624051
177	0x3bbfe158	0.0058557205
178	0xbdd412c1	-0.103551395
179	0x3ce51f8a	0.02796914
180	0xbe0b9720	-0.13631868
181	0xbd971b40	-0.073782444
182	0x3df8f458	0.1215598
183	0x3cbbd67c	0.022929423
184	0x3e2a8d1e	0.16655394
185	0xbd177031	-0.03697223
186	0x3dd16776	0.10224812
187	0xbdbb44fe	-0.091440186
188	0x3c08aa54	0.008341391
189	0x3e141ec5	0.14464863
190	0xbdaa0d86	-0.08303361
191	0x3dad0a2d	0.084492065
192	0xbdff6626	-0.12470655
193	0xbdf4f9a2	-0.11961676
194	0x3e305727	0.17220746
195	0xbceba419	-0.028764771
196	0xbdd1aedb	-0.10238429
197	0xbdac7f94	-0.08422771
198	0x3de46f5d	0.11154053
199	0xbe293712	-0.16524914
200	0x3d3b0e6c	0.04566805
201	0x3e20753a	0.15669718
202	0xbbb62e6c	-0.005559733
203	0xbda9d376	-0.08292286
204	0x3d076561	0.033055667
205	0xbdd5b5bb	-0.10435053
206	0x3d186065	0.037201304
207	0xbdcea575	-0.10090152
208	0xbd744d26	-0.059643887
209	0x3e085053	0.13311891
210	0x3df7b9ea	0.12096007
211	0x3c8fc801	0.017551424
212	0x3da4b12c	0.08041605
213	0xbdabaf28	-0.08383018
214	0xbde0116c	-0.10940823
215	0x3dad1cbb	0.084527455
216	0xbded680f	-0.11592113
217	0xbc4925ef	-0.0122771105
218	0xbe08bcd7	-0.13353287
219	0x3dfc22d5	0.12311331
220	0x3de539e2	0.11192681
221	0x3cde5d7d	0.027144188
222	0x3d8a5ee0	0.06756377
223	0x3e14eebf	0.145442
224	0xbe21555a	-0.15755215
225	0x3d759b8c	0.059962794
226	0x3dd43559	0.10361738
227	0xbdb0f624	-0.086406976
228	0x3d8820f3	0.066469096
229	0x3e1070b1	0.14105488
230	0xbdb4ba32	-0.088245764
231	0xbe53c4e5	-0.20680578
232	0xbc9832b5	-0.018578866
233	0xbe2a1f4e	-0.16613504
234	0xbc8f953c	-0.017527215
235	0xbc575c65	-0.013144587
236	0xbdf052e2	-0.11734559
237	0xbdb8ca6f	-0.09022986
238	0xbe039f9e	-0.12853858
239	0xbe41d762	-0.18929818
240	0x3d9fd85b	0.078049384
241	0x3da4e61b	0.08051702
242	0x3d1d49d1	0.038400475
243	0x3c72848f	0.014802112
244	0x3d320755	0.043464024
245	0xbe1be8bc	-0.152255
246	0xbc84c158	-0.016205475
247	0x3e1905eb	0.14943664
248	0xbe517051	-0.20453002
249	0xbe147cdf	-0.1450076
250	0xbdea695a	-0.114458755
251	0xbe1ee924	-0.15518624
252	0xbd91afd1	-0.071136124
253	0x3db0b56f	0.08628356
254	0x3e243847	0.16037093
255	0xbdaa47ba	-0.08314462

sequential/dense_2/MatMul f4 [3, 64]
0	0x3e5547ba	0.20828143
1	0x3d314caf	0.04328602
2	0xbd616ff0	-0.055038393
3	0x3e006630	0.12538981
4	0xbd8a2678	-0.067456186
5	0xbd119b0b	-0.03554825
6	0x3d95c142	0.073122516
7	0x3dd4666d	0.10371099
8	0xbe92225e	-0.28541845
9	0xbe99a7d8	-0.30010867
10	0xbe8d6093	-0.27612743
11	0xbdfaad73	-0.12240114
12	0x3dafc271	0.08582009
13	0xbe9ce8c3	-0.30646333
14	0xbdc7871f	-0.09742569
15	0x3e837d01	0.25681308
16	0xbe57b17e	-0.21063802
17	0x3e0c9725	0.13729532
18	0x3e842d97	0.25816032
19	0x3d157bb7	0.036494937
20	0xbe5db6bd	-0.2165174
21	0x3e47e3bf	0.19520472
22	0xbe49df72	-0.19714144
23	0xbdb8e84c	-0.09028682
24	0x3d9a97c0	0.07548475
25	0xbe957fad	-0.2919897
26	0xbd5af4d0	-0.053456128
27	0xbd449ad3	-0.047999214
28	0x3c1859b5	0.009298732
29	0x3e83d8ac	0.25751245
30	0x3d90a9bc	0.07063624
31	0x3e9a49ed	0.30134526
32	0xbc88e718	-0.016711757
33	0x3e96659f	0.29374406
34	0xbe123a85	-0.14280136
35	0x3c26f31c	0.010189798
36	0xbe79c5c3	-0.24391846
37	0x3d62a062	0.055328734
38	0xbdc89534	-0.09794083
39	0xbd217996	-0.039422594
40	0x3d962221	0.07330728
41	0x3ea4c13d	0.3217868
42	0x3def77cc	0.11692771
43	0xbe7a0d83	-0.24419217
44	0xbe5177ba	-0.20455828
45	0x3cccd2eb	0.025002917
46	0x3e0ab45c	0.13545364
47	0xbe4d508e	-0.2005026
48	0xbdda34c3	-0.10654595
49	0xbde900f4	-0.11377135
50	0x3e8ea4d8	0.2786014
51	0xbe00e8b4	-0.12588769
52	0xbd6356fc	-0.055502877
53	0xbe6ae1a1	-0.22937633
54	0xbc7a26c0	-0.015268028
55	0x3e3ace45	0.18242748
56	0x3e5324b9	0.20619477
57	0x3e498dba	0.1968297
58	0xbcc82d0c	-0.024435543
59	0xbe96efb7	-0.29479763
60	0x3e1b6a32	0.15177229
61	0xbea5bf44	-0.32372487
62	0xbe6e366c	-0.23262948
63	0x3d38befe	0.04510402
64	0x3e49e0f9	0.19714727
65	0x3e0675fd	0.13130946
66	0x3d98aa2f	0.07454335
67	0xbd88b0ea	-0.06674369
68	0xbd4ef605	-0.05052759
69	0x3e06a2f3	0.13148098
70	0xbe294fce	-0.1653435
71	0x3e490bd9	0.19633426
72	0xbe3674b1	-0.17817952
73	0xbcdb969c	-0.026805215
74	0x3e1a32c4	0.15058428
75	0x3e0d0a92	0.13773564
76	0xbbda0a80	-0.0066540837
77	0xbd554cc2	-0.052075155
78	0x3daf3fc7	0.085570864
79	0xbd9df3f7	-0.07712548
80	0xbe299606	-0.16561136
81	0x3d521182	0.051286228
82	0xbea4785d	-0.3212308
83	0x3e5c67db	0.21523993
84	0x3d4512ed	0.048113752
85	0x3d7d2edb	0.061812263
86	0xbe00d122	-0.12579778
87	0x3e886404	0.26638806
88	0xbdc1b0b4	-0.094575316
89	0xbe10820a	-0.14112106
90	0x3df3994f	0.11894476
91	0x3e41a10b	0.1890909
92	0xbd8aa653	-0.06770005
93	0xbe283f0a	-0.16430297
94	0xbe66ca23	-0.22538047
95	0x3d0e1c36	0.034694873
96	0xbd1d9e62	-0.038481124
97	0x3dfb3c3a	0.12267347
98	0x3e55fb24	0.20896584
99	0xbe8fdcbd	-0.28098097
100	0x3e5cd5f4	0.21565992
101	0xbe36be48	-0.17846024
102	0xbe9616c8	-0.29314256
103	0xbbb1f23c	-0.005430488
104	0x3d92b9c7	0.071643405
105	0xbe59f55c	-0.21285003
106	0xbdc923c6	-0.09821276
107	0x3d931170	0.0718106
108	0x3d2d1e7b	0.042265397
109	0x3e4b1dfd	0.19835658
110	0x3e5b1a1e	0.21396682
111	0x3e3a6526	0.18202648
112	0x3e5cd5c5	0.21565922
113	0x3d133938	0.03594324
114	0x3d34735d	0.04405533
115	0xbdf3aaa5	-0.11897782
116	0x3d63fe6f	0.05566257
117	0x3d3910f4	0.045182183
118	0x3d841623	0.06449535
119	0xbe45ccd6	-0.1931642
120	0x3e4ff8e9	0.20309795
121	0x3e6b970c	0.23006839
122	0xbe4dcde6	-0.20098075
123	0xbd6da16d	-0.058015276
124	0xbe2bf4bc	-0.16792578
125	0xbe44c452	-0.19215515
126	0xbd496a05	-0.049173374
127	0xbe2d65cf	-0.16933368
128	0xbd8423db	-0.064521514
129	0xbe4766cf	-0.19472812
130	0x3e3b0d92	0.18266895
131	0x3cb84df2	0.022498105
132	0xbe88c93d	-0.26716033
133	0xbe17e37c	-0.14832872
134	0xbc94018e	-0.018067148
135	0xbd7865a8	-0.060643822
136	0xbd8a9ec0	-0.067685604
137	0xbd185496	-0.037190042
138	0xbdc75b0d	-0.097341634
139	0x3d8507c4	0.06495622
140	0x3e807c87	0.25095007
141	0xbe0a2e8a	-0.13494316
142	0xbd40b541	-0.047047857
143	0x3e391dc5	0.18077762
144	0xbe108822	-0.1411443
145	0xbe10463c	-0.14089292
146	0xbe5c35a9	-0.21504845
147	0x3e61ea5a	0.22062054
148	0x3d01c47b	0.03168152
149	0xbdca469b	-0.09876748
150	0x3de3a3bb	0.111152135
151	0x3cd8adf1	0.02645013
152	0x3e4906c4	0.19631487
153	0x3d685dbe	0.056730025
154	0x3c640e17	0.013919375
155	0xbde7dacd	-0.1132103
156	0x3e70c237	0.23511587
157	0x3e44a773	0.19204502
158	0xbe08f94e	-0.13376352
159	0x3e34f5cd	0.1767189
160	0x3e27f8a1	0.16403438
161	0x3e6190fb	0.22027962
162	0x3e77614a	0.24158207
163	0x3daa3186	0.08310227
164	0xbe3beb55	-0.18351491
165	0x3e55a38d	0.20863171
166	0xbd9a1a7f	-0.07524585
167	0x3e2fa6d1	0.17153479
168	0xbd959fa8	-0.07305843
169	0x3e5fa32e	0.21839592
170	0xbce35d20	-0.027754366
171	0x3d844b88	0.06459719
172	0xbe04bd8e	-0.12962934
173	0xbd062735	-0.032752234
174	0xbdf7fa08	-0.121082366
175	0xbe033a23	-0.12815146
176	0xbe5aa6ff	-0.21352766
177	0xbdc80bab	-0.097678505
178	0xbd64aaaf	-0.05582684
179	0xbe9ee511	-0.3103414
180	0x3e4a9345	0.19782741
181	0xbe0c2ded	-0.13689394
182	0x3e22d1cb	0.15900342
183	0xbe85115f	-0.25989816
184	0xbd42baf2	-0.047541566
185	0x3e12e5c8	0.14345467
186	0xbde0f137	-0.10983508
187	0xbe043bb5	-0.12913401
188	0xbe206aec	-0.15665787
189	0xbe0ba2c8	-0.13636315
190	0x3c9118fa	0.017712105
191	0xbdf15d1b	-0.117853366
